saved/pretrain_base_uci_20_120/limu_v1.pt (torch, 260276 bytes, 29 tensors)

transformer.embed.lin.weight f4 [72, 6]
00000000: b62c 3dbe 9281 3e3e 45c1 afbe 5632 a9be
00000010: b44a b5be ed52 5fbe 5a1c b4be 20cb 603e
00000020: dab7 12be c7cc c9be cb69 af3d 5506 7d3f
00000030: 7c2e 8abe 392a e93e 13fc ab3d 266a 523d
00000040: f73e 1bbf 3ff8 cc3e 9782 e3bd 090e 583e
00000050: d671 a43e 76af 913c c532 f8be f04f ad3e
00000060: 6130 eebb b7a8 5ebd 0cf9 fa3e e755 713e
00000070: 76b9 dc3e 2b43 843d eb3c 96be 77ed dc3d
00000080: 7634 56be 6f6d 983e a616 82be c80e 65be
00000090: b073 05be 200f bf3e a8d2 fcbe 6940 593e
000000a0: 6ebf bd3e dadb 9f3e 6916 e43e eada 213e
000000b0: abcc e6bd 347f 4c3c 6fff 7e3d 987a 173e
000000c0: cfd5 8dbd 0208 2abd 97f2 1f3e 3f5f c03e
000000d0: cfdd 353f e593 01bf 559c cf3e 28b1 a4be
000000e0: 888c af3d 7860 1ebe 3d36 e8be 0cef 0c3e
000000f0: 114e b03d 71b3 1abe 78ff f2bd 30c3 b5bd
00000100: 2f02 aebe 806d 9d3d 52bd a5be 6353 11be
00000110: f778 ddbe da3b 5e3e 4fe1 d5bb 5152 f93d
00000120: a64e 6e3e 69d5 35be 0baf 933d 717b 253f
00000130: 4fab 9e3d 45f5 173e 6a29 1c3e b46e e13e
00000140: 336d ca3d 3311 b3be c795 dabd d785 8ebe
00000150: 358a 963e f0f2 c73e 0daa 5b3e 6643 d23e
00000160: 2daf b83c 6e22 4fbe 53c9 81be e8d3 c1be
00000170: 1672 6c3e 3f9c cebd 7eb1 b8bd bf1e 723d
00000180: a6f0 00be 965e a93e 8f2f 8abe 746d 40be
00000190: 824b 603c 44a7 0ebf 719f ba3d 8817 90be
000001a0: b34f b5be f21b 083f f7ce 92be edd5 52be
000001b0: 61b0 ddbd abf5 e73d 9fa3 1f3d 4fcf 93be
000001c0: 568a d83e b65b 2abf 8f2a 4f3c d21c 75be
000001d0: b62f a23e 06c3 603c ed39 c5be 10b7 93be
000001e0: eee5 b8bc dec6 bc3e 7bb4 cbbe 70d4 36be
000001f0: 9f08 1d3e 54d9 bfbd a85e 2b3e f1e0 28be
00000200: b771 863d c244 bb3d d497 863d f8ba a8be
00000210: e8c1 74bd f181 a8be 60e0 d23e 6602 babe
00000220: ed22 083e a317 203d 6b97 42be 4a29 57bd
00000230: 7850 e03c 5513 3ebe 8d15 093e 5b13 053f
00000240: b291 1fbe 76d4 f93e 76ba f5be c60f 0ebd
00000250: 6254 59be bab0 12be 8c5c 95be 3a77 d4be
00000260: d106 0fbc 74d7 3fbe af53 2fbe ec31 203e
00000270: 892d 93be babb ce3e 3ad0 6a3e ee61 60be
00000280: 02c6 1ebf f5b8 153d 5e4d 6f3d 6404 cfbd
00000290: 61fb cc3d f7a2 2bbf 0eab 91be 7a8d 58bd
000002a0: 6b50 353e d3d7 353e 90cc 5f3e 7643 38bd
000002b0: 6b9a 21bf 883a 52bf 184f 87be 3d4f 40be
000002c0: 4329 ba3e efec 913e 63de fb3d 2314 d83e
000002d0: cf90 853d 29ba 0d3e 4242 963e da44 0dbd
000002e0: de6f 163f a6b3 bd3e 05ca b9be 3dad 9cbe
000002f0: fd0e db3e b82c 54be d7e2 98be 3de4 9a3e
00000300: 5bd5 f43d 7e25 f9bd 2001 0f3e f731 82be
00000310: 1af9 913e 2a31 14be 2f13 b73e 48fa a63e
00000320: 23f0 25bc 9ca6 003f 5dc6 7b3d c528 7bbe
00000330: 0568 663e b77a 80be 6b82 973e 3a33 82be
00000340: ea57 493d deae 613e 5ad6 d13d 3a27 9fbc
00000350: e5b2 b03e 2ee1 513e 4438 04bf def1 0fbf
00000360: e6ef f1bd 846d 83be ddb8 4d3a 205a ca3e
00000370: 381a 263e 852a ca3e 27fc c43d d7a9 bfbe
00000380: b9df dabd 9d76 52bd b765 09be 534e 283e
00000390: b892 0f3c 4625 7d3e bb22 b73e ef98 d8be
000003a0: b8da 57be c2d2 4b3e 7590 a5be 9be8 ebbe
000003b0: d93e 28be 23fe 0a3f ea98 28be 407c 7b3e
000003c0: 0880 e2bd be13 c63e 6f1d 67be c5d7 96be
000003d0: 24da ed3d 4442 57be e396 a1be e006 bb3e
000003e0: 401c 653e 98f8 833e 7814 47be 15e8 96be
000003f0: c45d 87be 7368 883d 7452 443e bf61 f53e
-0.18474087 0.18604115 -0.3432714 -0.33046216 -0.35408556 -0.21808977 -0.3517788 0.21952486
-0.14327946 -0.39414045 0.085651 0.98837787 -0.2698859 0.45540026 0.08397689 0.051370762
-0.6064295 0.40033147 -0.111088924 0.21099104 0.321181 0.017783862 -0.48476234 0.3385005
-0.007268951 -0.054360118 0.49018133 0.23567925 0.43110245 0.06458124 -0.29343352 0.1078748
-0.2091845 0.2977099 -0.25407904 -0.2236892 -0.13032413 0.37316227 -0.49379468 0.21215977
0.37060112 0.3122242 0.44548348 0.15806165 -0.11269506 0.012481499 0.06225532 0.1479286
-0.069255464 -0.041511543 0.15619884 0.37572667 0.7104158 -0.50616294 0.4054896 -0.3216641
0.08571726 -0.15466487 -0.4535388 0.13763064 0.0860864 -0.15107514 -0.11865133 -0.0887512
-0.3398604 0.07686901 -0.32371002 -0.14191966 -0.4325635 0.21702519 -0.006527103 0.12173904
0.2327219 -0.17757191 0.07211121 0.6464148 0.07747518 0.14839657 0.15250173 0.44029772
0.09884109 -0.3497406 -0.10673099 -0.27836487 0.2940232 0.39052534 0.21451588 0.41067046
0.022544468 -0.20227978 -0.2534891 -0.37856984 0.23090395 -0.10088395 -0.09018229 0.059111353
-0.125918 0.33079976 -0.2698941 -0.18791753 0.013689877 -0.5572398 0.09112442 -0.28142953
-0.35412368 0.5316764 -0.28673527 -0.20589419 -0.10824657 0.11326154 0.0389744 -0.288691
0.42293042 -0.6654619 0.012644424 -0.23936775 0.31677026 0.013718372 -0.38520756 -0.28850603
-0.022570577 0.36870474 -0.39786133 -0.17854476 0.1533532 -0.09367624 0.16735327 -0.16492058
0.06564658 0.09143974 0.06571928 -0.32955146 -0.059755236 -0.32911637 0.4118681 -0.36329955
0.13294573 0.03908504 -0.19003074 -0.05252961 0.02738212 -0.18562062 0.13387127 0.5198266
-0.15582922 0.48794907 -0.4799382 -0.03468301 -0.21223596 -0.14325228 -0.2917217 -0.41497213
-0.0087296525 -0.18734533 -0.17121767 0.15644044 -0.28745678 0.403776 0.22930995 -0.21912357
-0.62020886 0.036553342 0.058423392 -0.10108259 0.10008884 -0.6704554 -0.28450817 -0.052869298
0.17706458 0.17758112 0.21855378 -0.04498621 -0.6312625 -0.8212056 -0.2642753 -0.18780227
0.36359605 0.28501078 0.12298276 0.42202863 0.06521761 0.13840546 0.29347426 -0.03448949
0.58764446 0.37051123 -0.3628694 -0.3060092 0.42784873 -0.20720184 -0.29860565 0.30252257
0.11954757 -0.12165354 0.13965273 -0.25428745 0.28510362 -0.1447188 0.35756823 0.32612824
-0.010128054 0.50254226 0.06146847 -0.24527271 0.22500618 -0.25093624 0.2959169 -0.25429708
0.049156107 0.22039363 0.102459624 -0.019427884 0.34511486 0.20496055 -0.51648355 -0.56228435
-0.11813335 -0.2566949 0.0007847676 0.39521885 0.16220939 0.39485565 0.09618407 -0.37434265
-0.10687203 -0.05138265 -0.13417707 0.16436128 0.008763008 0.2472125 0.35768685 -0.4230418
-0.21079528 0.19904616 -0.32336774 -0.460759 -0.16430224 0.5429403 -0.16464582 0.24559116
-0.11059576 0.38686937 -0.22569822 -0.29461494 0.11613873 -0.21021372 -0.3156043 0.36528683
0.22374058 0.257756 -0.19441402 -0.2947394 -0.26438725 0.06660547 0.19172078 0.47926137

transformer.embed.lin.bias f4 [72]
00000000: bd4b a8be c272 973e cd2f 723e 27a9 f83d
00000010: 7746 85bd 5b1d 023d 8f9e 8ebe 5dd6 9fbe
00000020: 9876 9c3d 4217 8ebe 4f39 373e c3b4 993e
00000030: 4bae 303e 1f07 553e b45a b73e 22e9 2b3e
00000040: 979a 23bb 50ba 71be 2759 293c ef95 963d
00000050: e4ea a53e 62e5 2f3b a34b 523e 3c3a 8c3e
00000060: fb24 85be 0828 c8bd 59c7 333e 1a1d aa3c
00000070: 841a a83d 225d 343e 858d 193e 3228 afbe
00000080: b7d1 4dbe f3a3 b33e e069 88be 2054 a8bc
00000090: 162c 573e a9e4 02be 84a5 5fbd d438 29be
000000a0: 6007 883d cd44 dc3d a784 303c 2190 993c
000000b0: 8f8c d0bd eb6b 6ebd 7193 ab3d 39cd 8cbe
000000c0: b923 a33e c923 833e ab1c aabe 13c3 1d3e
000000d0: d573 48be bba5 833e a21a c13e f6ef 433d
000000e0: 16d9 893d 3b1b e7bd d6a5 ae3e ea07 853e
000000f0: b449 1a3e 65c2 1cbd 080a 08be d16a 8bbe
00000100: b15c b53e aeb6 3ebe 9c64 ea3d 77b9 a93e
00000110: 2d6d 4e3d e890 79be 7cde 573e ba61 94be
-0.32870284 0.2957974 0.23651047 0.12141638 -0.06507581 0.031766277 -0.27855346 -0.31218234
0.076398075 -0.2775212 0.17892955 0.30020723 0.17253987 0.20803498 0.35811388 0.16788152
-0.002496397 -0.23606229 0.010336197 0.07352816 0.3240577 0.0026839604 0.20536666 0.2738818
-0.26004776 -0.0977326 0.17556514 0.02076583 0.082081825 0.17613652 0.14995392 -0.34210354
-0.20099531 0.3508602 -0.26643276 -0.020547926 0.21012911 -0.1278254 -0.054601207 -0.16525584
0.06642032 0.1075531 0.010773814 0.018745484 -0.101830594 -0.058208387 0.083777316 -0.27500322
0.31863192 0.2561324 -0.33224997 0.15406446 -0.19575436 0.2571238 0.37715632 0.047836266
0.06730859 -0.11284491 0.34110898 0.259826 0.15067178 -0.038271327 -0.13285077 -0.27229932
0.3542228 -0.18624374 0.11444971 0.3314931 0.050397087 -0.24371684 0.21080965 -0.2898081

transformer.embed.pos_embed.weight f4 [120, 72]
00000000: 5de5 2fbf 84c3 cfbf caf6 02bf f745 853f
00000010: 55f3 f6bd 5bb7 863e 7a14 f6bc 401d aa3f
00000020: 7fad 08bf 48a4 05bf baab cd3e 487c 1240
00000030: 91ce 473f 0b44 9b3f 516a e33e 469b 7dbf
00000040: f6ac 58be a886 25bf ba6e 683f eed9 7e3f
00000050: 5b86 cd3f 0fa4 a8bf e75e 85bf 1359 a9bc
00000060: 59f7 bcbf 477b f8bb 70dd 8bbe 955a 2abe
00000070: 366b 3dbd 30e8 bcbf 84d8 1f3e b329 71be
00000080: 6ed9 0f3e b535 d73f 553d 563f 6084 4a3e
00000090: 00bf 9e3c 0289 3340 bc27 c8bf f826 24bf
000000a0: e588 6a3f e92b aa3f d74e b13c 661f 02be
000000b0: d77c 0d3f 44c3 48bd ade0 073e 6b1e 28bf
000000c0: a4e2 3f3f 4273 693f 26d8 bf3f e876 ce3e
000000d0: a040 f4bf c463 86bf dda0 f03e 0ad7 7a3e
000000e0: 66f1 713e 81de 18bf c960 5ebe 0847 2f3f
000000f0: c6af 2cbf 8dd2 1cbf 279d 44bf 4f70 803f
00000100: 399f 28bf a9f6 5fbd deb7 e23f 17de 8b3f
00000110: c895 7cbf 1ee6 6e3e 577c 11bf 69d1 863f
00000120: 189b 75bf be36 e83e d9f4 a8be 780c 06be
00000130: 5915 49be 8d36 373f 3948 663f 5d7b 1740
00000140: b9f5 4bbf 4f47 0dc0 67fa c3be fdcd a53e
00000150: 85c9 b23f b514 a23c 1e71 bb3f 85e6 9fbf
00000160: d853 633e 2d7c 313f d88c d43f 6423 673f
00000170: d5a5 09be 4802 cc3e 958e 0040 6868 fb3e
00000180: 8d25 1940 5c5b a03f 9851 fdbe 667e ba3e
00000190: 5277 f0bd 3675 a6bf c082 1d40 1934 733e
000001a0: e60b 593f 3299 a53f 6a6a c7bf 5486 7dbe
000001b0: 7230 cebd ff2e 6cbf 8475 ffbe 052b b33f
000001c0: b55a d93f 84e2 16bf b4ab 87bf 777e 14bf
000001d0: bb16 4bbf 302f 273f 212c 0dbf a2d5 a63f
000001e0: f2fa c1be 33e0 1c40 b5bd 5b3e b8bc 5ebd
000001f0: 624f 52bf ce37 1940 a5f1 87be d3dc 4ebf
00000200: ced8 ce3f 62e8 143f b237 c33f 2a97 eebd
00000210: b6b5 27bf 9752 ad3f 7bcd e7bf f5ce 0a3f
00000220: 2a35 08bf f801 973e ed9a 1b3f 7dca c93e
00000230: ba92 323f 986f d8bf 4ddb 45bf ea67 913f
00000240: 5241 033f 4e71 cebf 3905 1dc0 415c 2a3f
00000250: 192a 973f cf96 3a3f 07a5 6e3f 1194 223f
00000260: fdae e4be 1e41 42c0 6122 b73f 9c7d 593f
00000270: 104f 27c0 ac9e e2bd ac90 683f c385 bc3f
00000280: ae3d f23f 3c86 1b3f e1a7 0bc0 0dfe b83f
00000290: cbb0 fabe a9f5 643f fceb 91be c726 b83f
000002a0: 37e3 5fbe 154c ca3f fdfb 563f 84b6 7ebf
000002b0: 7354 36be f452 7d3d 0095 aa3f 7537 e5bf
000002c0: f3ca d3bf c77f 0e3e 5f41 96bf 3b25 be3e
000002d0: 004f 5b3f c670 643f cecc 4fbf 5bd7 bd3e
000002e0: 0cfc 003f 0ab6 663f cf5d b7bf 44b4 983f
000002f0: 4d21 de3e e8e6 4f3e bfd7 123f b2b2 ec3f
00000300: e17d 3a3f 7e75 863f f0e0 ddbf eadf 5abf
00000310: e0d2 2e3f f232 08c0 ad73 e6bd 56a5 89bc
00000320: 7df4 be3f 3588 79bf e389 b13f 09f0 dabd
00000330: 0422 853f 8652 61be 0f98 27bf 0848 2cc0
00000340: f883 36be 4f70 9c3e 4bcb 3840 da65 a63e
00000350: 434e 57be 17e5 0ebf d5ac 63bf 54e3 2b3f
00000360: 9968 c0bf 2ee5 2c3f 50d0 443f 6fdb b0bf
00000370: 0486 c63b 532a 89bf 22d0 a0bd 66d7 abbf
00000380: bfac 2abf e1c5 6fbf 57e4 1dbf 0f86 09c0
00000390: 1663 21be 6647 1abe 7617 0340 dc7b b73e
000003a0: 0619 1fbe d479 563f ce79 ab3f b856 d43f
000003b0: 72b3 1b40 972f 86be e365 c0be ecbb 0440
000003c0: c5e0 e6be 10ae 9abf 1215 44bf 9d7e b73f
000003d0: e319 94bf 199f b1bf f11d 23bf d3c9 a13f
000003e0: 5ee7 3e3f 226e a43f b908 63bf e469 203f
000003f0: 42f8 f1bf fd57 0d40 4e15 21be 1b72 1d3f
-0.68709356 -1.6231542 -0.5115782 1.0411977 -0.12058131 0.26311764 -0.03003906 1.3290176
-0.53389734 -0.522038 0.4017008 2.2888355 0.7804957 1.213014 0.4441705 -0.99065053
-0.2115973 -0.64658594 0.90793955 0.99551284 1.6056627 -1.3175067 -1.0419587 -0.020672357
-1.4762985 -0.007583055 -0.2731738 -0.16636117 -0.046244822 -1.4758358 0.15609938 -0.23551063
0.14047787 1.6813265 0.83687335 0.1977706 0.019378185 2.8052373 -1.5637126 -0.6412196
0.91615134 1.329465 0.02164404 -0.1270729 0.55268615 -0.049014345 0.13269301 -0.65671414
0.749552 0.91191494 1.4987838 0.40325093 -1.9082222 -1.0499196 0.4699773 0.24496093
0.23627242 -0.59714514 -0.21716608 0.6846776 -0.6745571 -0.61258775 -0.76802295 1.0034274
-0.65867954 -0.054678593 1.7712362 1.0927151 -0.9866605 0.2332997 -0.5683035 1.0532657
-0.9593978 0.45354265 -0.32999304 -0.13090694 -0.1963705 0.7156761 0.89953953 2.3669045
-0.7967182 -2.2074773 -0.3827698 0.3238372 1.3967749 0.019785265 1.4643896 -1.2492224
0.22199953 0.693301 1.6605482 0.90288377 -0.13442166 0.3984549 2.0087025 0.49103093
2.392917 1.2527881 -0.49476314 0.3642456 -0.117415085 -1.300452 2.4611053 0.23750342
0.8478378 1.2937376 -1.557935 -0.24758273 -0.10067834 -0.9225921 -0.49894345 1.3997504
1.6980807 -0.58939385 -1.0599275 -0.5800547 -0.7933156 0.6530638 -0.5514546 1.3033946
-0.3788677 2.451184 0.21459086 -0.054379195 -0.8215238 2.394031 -0.26551548 -0.808057
1.6159914 0.5816709 1.5251372 -0.11649926 -0.65511644 1.354083 -1.8109583 0.5422204
-0.5320612 0.2949369 0.60783273 0.394123 0.69755137 -1.6909056 -0.7728775 1.1359837
0.51271546 -1.6128328 -2.4534438 0.6654702 1.1809722 0.72886366 0.9322056 0.6350718
-0.44664755 -3.0352244 1.4307367 0.8495729 -2.6142006 -0.110654205 0.9084575 1.4728321
1.8925073 0.607517 -2.1821215 1.445253 -0.48963007 0.8943735 -0.28500354 1.4386834
-0.2186402 1.5804468 0.83978254 -0.99497247 -0.17805652 0.06184669 1.3326721 -1.7907549
-1.654631 0.1391593 -1.17387 0.3713778 0.8566742 0.8923458 -0.8117188 0.37078366
0.50384593 0.9012152 -1.4325503 1.1930013 0.4338478 0.20302927 0.5736045 1.8492033
0.72848326 1.0504606 -1.733427 -0.85497916 0.6829052 -2.1281095 -0.11252532 -0.016802471
1.4918362 -0.9747346 1.3870205 -0.10690314 1.0401006 -0.22004136 -0.654664 -2.6918964
-0.1782378 0.30554435 2.887408 0.32499582 -0.21025948 -0.55818313 -0.88935596 0.6714375
-1.5031921 0.675372 0.7688036 -1.3816966 0.0060584564 -1.0716041 -0.07852198 -1.3425109
-0.6666984 -0.93661314 -0.61676544 -2.1488073 -0.15760455 -0.15066299 2.048307 0.35836685
-0.1553689 0.83779645 1.3396547 1.6588964 2.4328275 -0.26208183 -0.37577733 2.0739698
-0.4509336 -1.208437 -0.7659465 1.4335514 -1.15704 -1.3876678 -0.6371756 1.2639717
0.7457179 1.284611 -0.88685185 0.62661576 -1.8903887 2.2084954 -0.15730783 0.61502236

transformer.embed.norm.gamma f4 [72]
00000000: 3a22 743f be6d 8f3f fa4f 8c3f f151 893f
00000010: d7ad 813f 1f91 743f f860 713f cc8b 913f
00000020: a8c2 b13f 92f4 813f 9f0b 703f f54a 833f
00000030: 878f 723f 22ca 743f fe9e 733f a888 9f3f
00000040: 9718 793f 100e 763f 2cf6 843f 617b 803f
00000050: 2964 763f efc8 653f 4ba5 7a3f f8ea 7b3f
00000060: d954 763f b1c6 643f bb1b 853f 5d56 833f
00000070: 5838 803f 7aa2 853f 2edf 803f b433 6b3f
00000080: 6d05 6f3f 75cb 6c3f 24ca 813f a399 833f
00000090: 9cba 7b3f ea4c 6f3f 876b 823f 7ba3 7b3f
000000a0: 33a5 803f 8c72 6b3f 11dc 7d3f ff40 8b3f
000000b0: 343f 803f 3177 923f f208 843f 1872 683f
000000c0: 3194 723f b47a 763f b609 643f fcbe 783f
000000d0: ba7b 783f d756 813f 5234 823f 9c16 7a3f
000000e0: 6120 723f 6ac2 7a3f c60f 733f f70e 813f
000000f0: cb39 6f3f a531 733f d567 7c3f c4c8 833f
00000100: 1022 773f 785a 663f 19fc 873f 6887 6a3f
00000110: 3080 953f b108 843f c57b 663f 1f89 793f
0.95364726 1.1205366 1.0961907 1.0728132 1.0131177 0.9553394 0.9428859 1.1370788
1.3887529 1.0152762 0.9376773 1.025725 0.94750255 0.9562093 0.9516448 1.2463579
0.97303146 0.9611521 1.0387626 1.0037652 0.9624658 0.89759725 0.9790847 0.9840541
0.9622322 0.8936568 1.0399088 1.0260731 1.0017195 1.0440209 1.0068109 0.9187577
0.93367654 0.9249795 1.0139813 1.0281261 0.9833162 0.93476737 1.0189065 0.98296326
1.0050415 0.9197166 0.9916392 1.087921 1.0019288 1.1442624 1.031523 0.90799093
0.9475737 0.9628098 0.8907732 0.9716642 0.9706379 1.0104626 1.0172217 0.9769075
0.94580656 0.979529 0.94945943 1.0082692 0.9344756 0.94997627 0.98595935 1.0295644
0.9653635 0.89981794 1.0623809 0.91612864 1.1679745 1.0315152 0.9003261 0.97474855

transformer.embed.norm.beta f4 [72]
00000000: caf2 883d cbd3 223c 793a a23a 1b10 debb
00000010: ae6d 903d b2b3 283d fc66 de3d 1c23 38bb
00000020: 7a39 a13c cb53 30bd 6731 a7bd 811a 0abd
00000030: ec55 8ebd 65c9 90bd 98a6 f4bd e258 633c
00000040: 1c5a 923d 582b e2bb 6312 593d 0cca 67bd
00000050: 2548 7abd 1e14 c2bd b212 9ebd 3c8c 53bd
00000060: c2d0 d43d 82c9 ff3d 3739 003d 5908 9fbc
00000070: f69f 69bd e88c 52bc f30f 4fbd 38db df3d
00000080: 49e5 8b3d ad82 04be d327 3e3d 0a83 8cbc
00000090: 5a27 97bd fa2e 253b 78ae b93c 7baa 4d3d
000000a0: a59c dc3c 123d af3d 0be8 493d be00 74bc
000000b0: 99ff 0d3d cdbe 6e3c 89e0 aabc 920e d93d
000000c0: 01b7 d8bd 8906 b1bd 42c7 1a3e 7864 d4bd
000000d0: 5408 5c3d 9c96 41bd c787 30bc 60a2 903d
000000e0: f597 443d 6cb3 be3c e191 8bbd 42ee 40bd
000000f0: 73e6 e03c 11ec b13d 7d20 973c b4ed 543d
00000100: 097c 62bd e1f5 e73d a0e8 10bd c996 01be
00000110: 2983 7dbb 3822 d53c 7807 eabd eccd 443d
0.06686933 0.009938191 0.0012377045 -0.0067768223 0.0705217 0.041186996 0.108594865 -0.0028097099
0.019680727 -0.04304866 -0.081637196 -0.033716682 -0.06949982 -0.07069663 -0.11945838 0.013876172
0.07146093 -0.0069021396 0.05299605 -0.05658917 -0.06110396 -0.09476493 -0.077184096 -0.05164741
0.1039138 0.124896064 0.031304564 -0.01941316 -0.057037316 -0.0128509775 -0.05055232 0.109304845
0.06830842 -0.12940474 0.046424698 -0.017152328 -0.073805526 0.0025205002 0.022666201 0.05021141
0.026930163 0.0855657 0.04929356 -0.014892755 0.034667585 0.014571858 -0.02085902 0.10598482
-0.1058178 -0.086438246 0.15115073 -0.103707254 0.05371888 -0.047262773 -0.010774559 0.070622206
0.04799648 0.023278914 -0.068149336 -0.04710222 0.027453637 0.08687604 0.018448109 0.051984504
-0.05529407 0.113261946 -0.0353781 -0.12655176 -0.0038682914 0.026017293 -0.11427206 0.048047945

transformer.attn.proj_q.weight f4 [72, 72]
00000000: c198 7d3d e5ff 51bc 32cf bfbd 34ee 073d
00000010: 27c1 093c ccc3 0c3e 717c dfbc 5812 b5bb
00000020: 025e 08bd b68b 8fbd fe16 503d 2954 c7bd
00000030: de7a b9bd 4023 19be 2b1e 07be 37da 7cbc
00000040: b4ed 5abd 3b8d 7e3d a628 06be 3c85 16be
00000050: 3bfb 0dbd e212 89bc 31e8 0f3e e1d8 46bd
00000060: 2d1a cbbb ef37 763d 8538 903d f5b3 b53d
00000070: 45ac 043e 57a5 46bd 6000 83be 46f0 6a3d
00000080: da40 d13d f25f 47bd 919f ac3d fc8a b8bc
00000090: 86f6 7ebd cb5d 713d a641 62bd 1758 063e
000000a0: fc02 ffbd 42bd c13c 99fd 1b3e 6b82 a63e
000000b0: c7df b8ba f55a 103e b808 333d c6a1 1a3e
000000c0: 257c 2fbd 9aa1 993c f8c0 e83d 754c 2ebc
000000d0: b1b6 abbb 9285 c83c a44e 04be 20dc 39bd
000000e0: 4ec2 94bc 24a1 9f3d eceb 193d c5ee 38bd
000000f0: 944b 1bbd e705 44bd a70f 593d 929c 193e
00000100: eb7b 843d 9b51 113e 0e97 43be 58a2 563d
00000110: e6c2 47bd 043d 1c3e 10b1 833d abd4 a73b
00000120: 3efb 113d dfdd ae3d 6d1f dcbd cc4a b53c
00000130: 00d2 c1bc 713c 1ebd 819a 06be 1e6a 9e3d
00000140: 3845 52bc ac4f b03d 3b0f 773d 4293 90bc
00000150: 54de c83c 8387 f4bd 12e7 183d 3164 f7bd
00000160: dc92 abbd 8d23 09be d575 f9bd 0a31 ebbc
00000170: 2856 25bd 656f 34bd b640 2fbc a62e d9bd
00000180: 2fef 913d a714 953c 9fb0 c13b 6061 0dbc
00000190: 1e86 e9bd 3dc9 8d3d 4ab5 a9bc f130 0cbe
000001a0: 812f 5e3d 011d a5bc 0877 103e 5ce5 623c
000001b0: 87d3 9c39 643b 01bd c872 b53c 5ca4 aebd
000001c0: 20fa d63d ad5b a8bd 365b a53d 84e0 0bbc
000001d0: 30cd b53d f5e0 df3c d8cf 7a3e 25ee fe3c
000001e0: a73e a6bc f1f8 62bd 284a ca3c 2b8d b2bc
000001f0: 9828 a2bd 9542 f5bd d3d7 413e 2ba7 70bd
00000200: cf52 a6bd 295b 073e 7085 253e ed45 ba3d
00000210: 42b5 ca3d f52b 1ebe e03e 573d 201b 053b
00000220: fbdf 55bd 1516 15be 6093 253d 05a4 c8bd
00000230: 0a43 973c 1d74 6e3d c742 c13d ba49 e23b
00000240: 5dd2 c73c 12c5 c0bc 3cd2 43be 9259 25bd
00000250: 5aa1 963d aebd 88bd bc2a c6bc 515e a2bd
00000260: 4ca1 ce3d 6646 bbbd fb8f 81bb 2211 193d
00000270: a19b bfbd a906 fd3d b08d 69bc 6ad4 4e3e
00000280: 163a 71bd 6f79 c63d aaac c2bb e861 083d
00000290: a1e7 4a3d 9b85 b63c 925b d9bb 45c4 173d
000002a0: bf7a 93bc f4ef 183d 0884 83bd e860 d0bd
000002b0: 109d 49bd a54e b0bb b685 f6bd 0c53 643c
000002c0: f530 97bd c3ab dcbd 99e8 ea3c cc13 f2bc
000002d0: 7824 b4bc e7ed e43c b260 403d b225 083d
000002e0: cea2 73bd bcb0 b9bd 9d00 a63c 2467 f53d
000002f0: 5505 a9bd a783 763a bbf6 14be 11ae d1bd
00000300: e7ae 883d e67f 7b3c df25 913d 19fe 4d3d
00000310: 9ee2 bfbd 0708 1cbd 214f 9f3d 3a24 85bc
00000320: f14d 5cbd 070e 90bd 95e0 a7bd 7cc0 c5bb
00000330: aaa0 6a3c 4589 5abc d864 043d 0193 d2bb
00000340: 2499 943c a8be 4bbd f3a9 ed3b 49f0 dc3d
00000350: ca63 4f3e 5405 9abb b9e0 20bd 3a0f 0e3d
00000360: d56e 603d 3d8f afbc 58c8 d7bc 5571 a53d
00000370: 72d5 ba3c ae86 e8bd 2a12 58bc e1c7 e63b
00000380: b4e4 863d 7103 b83c 5f60 ee3d 4374 983c
00000390: 749f 2cbd 4b06 8dbd fabf 63bd e5c3 093e
000003a0: a8dc 2abe 4860 f7bd a411 3bbe 2d41 0d3e
000003b0: 5283 a3bd 4644 8d3d 0ef4 283e c532 8e3c
000003c0: ade8 033a e924 0bbc 7738 083d d376 7e3c
000003d0: 19e7 8b3d d573 22ba 5813 31bd 5171 43bd
000003e0: 6ae8 a23d bb45 ae3c 838b 80bd 451d f3bc
000003f0: 1032 ac3d 7891 513d 7bdd df3b 4f29 d23d
0.061913256 -0.012817358 -0.09365691 0.033186153 0.0084078675 0.13746566 -0.027281018 -0.0055258684
-0.033292778 -0.070090696 0.050803177 -0.09732849 -0.09056638 -0.14954853 -0.13195102 -0.015432886
-0.053449348 0.062146407 -0.13101444 -0.14699262 -0.03466342 -0.016732637 0.14053418 -0.048546676
-0.0061981888 0.060111936 0.0704203 0.08872215 0.1295634 -0.048497524 -0.25586224 0.05735805
0.102174476 -0.048675485 0.084288724 -0.02252721 -0.06224682 0.05892734 -0.05523839 0.13119541
-0.12451741 0.023649815 0.15233459 0.32521376 -0.0014104777 0.14097197 0.043709487 0.15100774
-0.042843003 0.018753815 0.11364931 -0.010638346 -0.0052402844 0.024477754 -0.12920624 -0.045375943
-0.018159058 0.07794407 0.03757851 -0.045149583 -0.037913874 -0.04785719 0.052993443 0.15001133
0.06468948 0.14191286 -0.19100592 0.052400917 -0.048769854 0.1525765 0.06430256 0.0051217875
0.035639994 0.08538412 -0.107481815 0.022130392 -0.023659706 -0.03863186 -0.13144876 0.07735084
-0.012833886 0.08608946 0.06031726 -0.017648343 0.024520077 -0.11939909 0.03732974 -0.12079657
-0.083776206 -0.13392468 -0.12180678 -0.028709907 -0.040365368 -0.044051547 -0.010696581 -0.106046006
0.07125699 0.018198324 0.0059109475 -0.008629173 -0.11402534 0.06923149 -0.020716328 -0.13690545
0.054244522 -0.020155432 0.14107907 0.013848629 0.0002991224 -0.03155078 0.022149459 -0.08527443
0.10496926 -0.08220611 0.08074038 -0.008537415 0.08877027 0.027328948 0.24493349 0.031119416
-0.020293547 -0.05541319 0.024693564 -0.02179583 -0.07917899 -0.1197559 0.18929987 -0.058753174
-0.08121263 0.13218369 0.16164184 0.090953685 0.098978534 -0.15446456 0.052550197 0.0020310357
-0.052215558 -0.14559205 0.04042375 -0.09796909 0.018464584 0.058216203 0.09436565 0.0069057615
0.024392301 -0.02353147 -0.19123167 -0.040368624 0.07354994 -0.066768035 -0.0241903 -0.07928146
0.10089359 -0.09144287 -0.0039539314 0.037369855 -0.09355856 0.12354786 -0.014254972 0.20198217
-0.058893286 0.0969113 -0.0059409933 0.033296496 0.049537305 0.022280505 -0.0066332305 0.03705241
-0.018002866 0.037338212 -0.06421667 -0.101747334 -0.049222052 -0.005380469 -0.12037222 0.013935816
-0.07382385 -0.107749484 0.028675364 -0.029550456 -0.021990046 0.027945472 0.046967216 0.033239074
-0.059481435 -0.090669125 0.020263964 0.11982563 -0.0825297 0.0009403773 -0.14547245 -0.10238279
0.06673985 0.015350318 0.070873015 0.050291155 -0.09369396 -0.038093593 0.077787645 -0.016252626
-0.05378527 -0.070339255 -0.081971325 -0.006034909 0.014320532 -0.013338392 0.032322735 -0.0064262156
0.01813943 -0.04974237 0.0072529255 0.10788018 0.2025291 -0.004700342 -0.039276812 0.03468249
0.054793198 -0.021430606 -0.026340649 0.08078257 0.022806857 -0.11353813 -0.013187924 0.0070428704
0.065865904 0.022462578 0.11639475 0.018610125 -0.042144254 -0.06885966 -0.055603005 0.13453634
-0.16685736 -0.12078911 -0.18268448 0.13794394 -0.07984032 0.06897788 0.1649935 0.017358193
0.0005031925 -0.008492687 0.033256974 0.01553126 0.06831188 -0.000619707 -0.04323134 -0.04771549
0.07954486 0.021273484 -0.0627661 -0.029677043 0.08407986 0.05116412 0.0068318225 0.10261785

transformer.attn.proj_q.bias f4 [72]
00000000: 7843 a7bd 0a2b 1cbd 0687 c4bb 214b 413c
00000010: d2f6 c6bd 0375 ec3d 8cde 5bbd 2c7b 863d
00000020: 18ac a338 2472 bcbd 2643 5c3c 897e 37bd
00000030: daca f9ba e1e2 cfbc a5d7 da3d bc4f 02be
00000040: 1fce 683d 225e 043e f985 283d 2474 f83d
00000050: d49c 9bbd bfef aabd e341 bf3d a2ef 1dbe
00000060: fae9 ed3d b960 373d 80e8 073d 0bfa f73c
00000070: db9b e8bc f123 863d 4d00 04be 8f1f a8bd
00000080: 0c2e d63d f9b9 8bbd bdea 3dbd d4d2 63bd
00000090: 79a2 353d 337a b5bc 7efc 7ebc 2ceb 6e3b
000000a0: 9a3e 71bd 2d48 cbbd d7f7 ba3d b704 a83d
000000b0: 9e93 adbd 0dda c5bd 771f 403d 22ba d03d
000000c0: 26ec b5bd a9ec c5bd 4851 6abd 1577 c03c
000000d0: 2a42 873d d37d ca3d 1dc2 013e 6169 62bd
000000e0: 15c1 e73d 9ee3 593d 4db2 9cbd 60c9 1dbe
000000f0: 5cdf 443d 62f5 23be 2ec1 173a 75bc 593c
00000100: a612 63bd 36c5 9a3c caf8 0d3e efd3 0b3e
00000110: ebc2 1fbd 6c79 733d 9ac1 debd 2dbc 85bd
-0.081671655 -0.038126983 -0.0059975414 0.011797697 -0.09715046 0.11545756 -0.053679034 0.06566462
7.804501e-05 -0.09201458 0.013443744 -0.044798408 -0.0019057647 -0.025376739 0.10685662 -0.12725729
0.056837197 0.12926534 0.04114339 0.12131527 -0.07598272 -0.08346509 0.09338739 -0.15423444
0.11616893 0.044769976 0.033180714 0.030270597 -0.02839463 0.06549824 -0.1289074 -0.08209144
0.104580015 -0.06822581 -0.046366442 -0.055620983 0.0443444 -0.022152996 -0.0155631285 0.0036456091
-0.058897592 -0.09925876 0.09129303 0.08204024 -0.08475421 -0.096607305 0.046905007 0.10191752
-0.08882932 -0.0966428 -0.057206422 0.023494283 0.06604417 0.0988728 0.12671705 -0.05527628
0.11316124 0.05319559 -0.07651196 -0.1540885 0.048064575 -0.16011575 0.0005788979 0.013289561
-0.055437706 0.018892866 0.13864437 0.13655065 -0.039004248 0.05944197 -0.1087677 -0.06530032

transformer.attn.proj_k.weight f4 [72, 72]
00000000: 1f4e f1bc f165 cfbc b01d adbd 94d6 793c
00000010: a400 da3d ada0 5ebd 84c3 4dbc 8f8b c6bb
00000020: 02da 22bd eaf5 aa3d a43e 023e 8163 80bd
00000030: 99a5 2fbd 6a21 d73d d6a7 6d3e 2641 2fbc
00000040: 2e72 cb3c 002e 01be 5ea6 9dbd 0168 123e
00000050: b0c5 1d3d 2dcb c2bd ba97 363e a02b 1a3d
00000060: 6f0b 85be 530e a4bd 59a6 373d deca 083d
00000070: 14a9 8dbc b20a 98bc 9fed 1abc 0ca9 1cbe
00000080: 013f d73b 7b5c a43e e9a6 96bd d565 a8bd
00000090: 6580 423d 63d8 d23d 9f7c eabd 03fb 4f3d
000000a0: cba1 6e3c a9ad d43d 3aa2 61be 4427 d7bc
000000b0: b7ee 47be 5217 d13c 95a6 723d 981d 16be
000000c0: ef9a 833e 3c9e 043e df9d 1ebe 03e5 b53d
000000d0: 59d9 b6bd 89e6 3bbc c6f3 18be 51c3 133c
000000e0: a311 fd3d 2ae9 103c be48 b2bb ce47 c03b
000000f0: d803 6a3c bb63 acbd ca87 4abe ff99 59be
00000100: 69ae 70bd 3581 5bbd 344f d73d 5b68 9c3d
00000110: d3ff 4ebd 00ce 10be 2162 90bd 6d84 8b3d
00000120: 3c31 46bd 9358 613d adcb 3e3b ff90 94bc
00000130: fc07 7fbd 2e12 0eb9 d99c ffbc 04e4 6abe
00000140: 9af3 58bc 0080 de3c 36b5 8f3d 5d83 29bd
00000150: cc47 04bb 6f1c 21be 97f9 4c3d 4aa1 3b3e
00000160: 2d6b 423d 726c b53d 2aa6 103e 2150 033d
00000170: a85d 7a3d 0250 cfbd 6c16 40bd 38d8 f63c
00000180: f5d7 a4bc b1cc 7f3d 3d02 a93d 8064 3dbd
00000190: 18ed 18bd a64a ec3d fea1 acbd 29ec 14be
000001a0: 76c4 dd3c 23cc c83d eff2 91bd 79c3 d8bc
000001b0: 3557 03be 7e8e 0d3d 1757 7dbe 2a3f adbd
000001c0: 2a4d e43d 7881 8abc 34ec 1d3c 1d3b 29bc
000001d0: 7837 36ba 6d00 b13d b13f fabc c349 393e
000001e0: 784e 103e 6169 0cbe c113 b23d e3b5 8b3d
000001f0: 56d5 eabd a73c 453d 0ee6 f93d c775 c93c
00000200: 15e0 f13c 1b4c 453d c05f 83bd bcee 6d3d
00000210: 8987 06bd ed9f efbd a400 dcbb 8d56 9a3d
00000220: 6770 a2bb 9fcb 8a3d e978 c9bd 8af2 0cbd
00000230: e9c7 b03d 318d 0fbe ee64 d43c 0091 1a3e
00000240: fd16 ea3c 3d49 9dbd d5c4 cfbd 69af 79bb
00000250: 1504 70bc 9e4b 0fbe 10af 77bd c3dc 7cbd
00000260: 015c 083c 1f1d 05bd 47a3 8cbc bb2f 3a3d
00000270: b311 4fbd 667f 643d 1d87 d23d e1dd 51bd
00000280: 5970 d13d 03ad d4bc 4800 02be 32e3 243d
00000290: 147a a63d df8b bd3d 7e73 b03d a2a1 653e
000002a0: d34d ccbc 964b 2b3e 7384 01be ca1f a63c
000002b0: 5290 133e 9f62 f03c 22fc 3b3d 0c9e 303d
000002c0: 43be 5cbd 9909 523e 467b 0abe fc37 bebc
000002d0: 583c 73bd 914f 8f3d ae64 9c3d 9ce5 3c3c
000002e0: abb1 18be c8ef 88bc bdfa 113c c685 523d
000002f0: 6d93 1bbe 50f6 c83c f4d3 0f3c 7c56 3cbd
00000300: d880 3abb 3978 953d 5411 a6bd e5e0 56bd
00000310: 8fe7 a8bd 890e 7b3d 6a69 c1bd bcf1 a33d
00000320: 154a 0ebd 54f1 8d3d f0dd 8e3d 6192 df3d
00000330: e274 523d 8a11 96bc 6439 243b b544 1dbd
00000340: 2a6d 913d 0514 403d a824 a73c 1c15 8d3d
00000350: 0acb aabc 6d46 7f3d bff6 973d 4e28 c43c
00000360: 4032 00be 2dfb eb3d bc2b 90bd 260e dc3c
00000370: a0ac 18bd 1c67 053c 1738 d63c e38e 00be
00000380: 50f6 1b3d 53e9 b43b f9f7 82bc 0a37 a0bd
00000390: 5105 b2bd ae65 06be e63f 8f3d 907d b93d
000003a0: 61f0 08bd fadc 183c 7c62 003e 6700 873d
000003b0: 6cef 32bc 9c5b b53d 25b8 3b3d 00d3 08be
000003c0: 17f2 73bd 0686 48be 6a30 28bc bc09 843b
000003d0: be73 bf3d 6f54 f7bd 9f2d 80bd 94e6 9a3d
000003e0: ac27 a23d 0f45 a3bc d076 383d 6de5 dabd
000003f0: fd9d a7bc 21ef fe3b 8eb3 fdbd 1844 15be
-0.029456196 -0.025317164 -0.08452928 0.015248913 0.106446534 -0.05435245 -0.012558822 -0.006059117
-0.03975869 0.08347686 0.12719208 -0.06268979 -0.042882536 0.1050442 0.23208556 -0.010696685
0.024834719 -0.12615204 -0.07697748 0.14297487 0.038518608 -0.09511409 0.17831317 0.03763926
-0.25985286 -0.08010545 0.044836376 0.033396594 -0.017292537 -0.018559787 -0.009456067 -0.15298861
0.00656879 0.32101807 -0.07356054 -0.08222548 0.047485728 0.10295179 -0.11449551 0.050776493
0.014564942 0.103846855 -0.22034541 -0.02626384 -0.19524656 0.025523815 0.059240896 -0.14659727
0.25704142 0.12950987 -0.1548991 0.08881571 -0.089281745 -0.011468538 -0.14936742 0.009018735
0.123568796 0.008844653 -0.0054408005 0.005867935 0.014283143 -0.084174596 -0.19778362 -0.21250151
-0.05876008 -0.05359002 0.10513154 0.07637092 -0.05053694 -0.14141083 -0.070499666 0.068123676
-0.048386797 0.05501611 0.00291131 -0.018135546 -0.062263474 -0.00013548948 -0.03120272 -0.22938544
-0.013241673 0.027160645 0.07016985 -0.041385043 -0.0020184396 -0.15733503 0.050042715 0.18323246
0.047465492 0.08858575 0.14125887 0.03205884 0.061124474 -0.10122682 -0.046896383 0.030132398
-0.020122508 0.06245107 0.0825238 -0.046238422 -0.037335485 0.115376756 -0.08429335 -0.14543213
0.027071219 0.09804561 -0.07126414 -0.026460396 -0.12826236 0.03455972 -0.24740253 -0.08459313
0.111475304 -0.016907439 0.009638835 -0.010329035 -0.00069510145 0.08642659 -0.030547949 0.18094544
0.14092433 -0.13712074 0.08695174 0.068218015 -0.11466472 0.048153546 0.122020826 0.024592293
0.029525796 0.048168283 -0.06414747 0.058089003 -0.0328441 -0.11700425 -0.0067139436 0.075360395
-0.004957247 0.06777119 -0.09837515 -0.03441099 0.0863188 -0.14018704 0.025927033 0.15094376
0.028575415 -0.07679985 -0.101449646 -0.0038098937 -0.014649411 -0.1399369 -0.060469687 -0.061733972
0.008322717 -0.032498475 -0.0171677 0.045455676 -0.05055399 0.05578556 0.10279677 -0.05123699
0.10226507 -0.025961405 -0.1269542 0.040255733 0.08128753 0.09255194 0.086157784 0.2242494
-0.024939453 0.16728052 -0.12648182 0.02027883 0.14410523 0.029343901 0.04589475 0.043119475
-0.053892385 0.20511474 -0.13523588 -0.023220055 -0.05938372 0.06997598 0.076363906 0.0115293525
-0.14911525 -0.0167159 0.008909878 0.051397108 -0.15192957 0.024531513 0.008778561 -0.045980915
-0.0028458145 0.07298321 -0.08108774 -0.05246057 -0.08247291 0.06129316 -0.09443934 0.080050915
-0.03473862 0.06930795 0.06975925 0.109165914 0.051381 -0.01831891 0.0025058622 -0.038395602
0.071008995 0.046894092 0.020403221 0.06888792 -0.02084877 0.062323023 0.0742011 0.023945
-0.12519169 0.11522517 -0.07039592 0.026862215 -0.037274003 0.008142259 0.026149793 -0.12554507
0.0380767 0.0055209785 -0.015987383 -0.07822998 -0.0869242 -0.13124725 0.069946095 0.09057152
-0.03343237 0.009330029 0.12537569 0.065918736 -0.01092134 0.08855364 0.04582991 -0.1336174
-0.059557047 -0.19582376 -0.010265449 0.0040294807 0.09348248 -0.12076651 -0.062587015 0.075635105
0.07917723 -0.01993039 0.045035183 -0.10688291 -0.020461077 0.007779971 -0.12387763 -0.14576757

transformer.attn.proj_k.bias f4 [72]
00000000: 5f1f 4abd efb8 1fbd fedb 8a3d 671b 833d
00000010: 90c2 91bc 3357 423d a149 17bd c0af 3e3d
00000020: 6e6a 3e3d b34a 593d 5ea7 17bd 28fa 293d
00000030: 596e bf3c e178 ab3d b06b c63c e3da a83b
00000040: af09 a03d 1647 ed3d d3af 8bbd ed21 2f3d
00000050: d2bc 973d e7bb 3239 a958 dfbc 0606 abbd
00000060: 1502 78bd b38c d0bd 17eb acbd 37bc c4bd
00000070: f00e b83d 46e8 273d 51bf ee3d 0741 903b
00000080: c20f 853a 197b 613d 78ff b7bd 5110 f1bc
00000090: 5490 6c3d ea74 d03d ff22 9e3d f96b e03c
000000a0: e991 e63c 64f4 1fbd a9b6 a03d c8e5 81bb
000000b0: 112d 323d ebc2 c8bc ffc1 ac3c 9ca4 f0bd
000000c0: 17d2 a0bc 5c57 af3d 7cf7 253c 37df e43d
000000d0: e5b8 cabd 4d16 5abd 7c47 ccbd 5d5c 853d
000000e0: dc61 bcbd ab68 9abc 2b22 953d 69f2 0dbd
000000f0: 63f3 b43c b2c3 85bd a558 96bb 5ef0 42bd
00000100: b32f 64bd c873 93bc 642b a43d 5028 8e3d
00000110: 4ff3 6cbd 567c 933d 19a7 cc3d 7982 08bd
-0.049346324 -0.038994726 0.067802414 0.06401711 -0.01779297 0.04744644 -0.036935452 0.046554327
0.046488218 0.053049754 -0.03702485 0.041498333 0.023368048 0.08372665 0.024221271 0.0051530465
0.07814347 0.11585824 -0.06820645 0.042756964 0.074090615 0.00017045402 -0.027263956 -0.08350758
-0.06054886 -0.10183086 -0.08443277 -0.09606212 0.08987224 0.040992998 0.116575845 0.004402283
0.0010151791 0.055049036 -0.08984274 -0.029426726 0.05775483 0.101785496 0.07721519 0.027395235
0.028145747 -0.03905143 0.0784734 -0.0039641596 0.04350001 -0.024507007 0.021088598 -0.11750147
-0.019631429 0.08561584 0.010129806 0.11175387 -0.09898547 -0.053243924 -0.09974572 0.065117575
-0.09198353 -0.018848738 0.07281908 -0.03465501 0.022088712 -0.065314665 -0.004588204 -0.047592513
-0.055709552 -0.017999545 0.080160886 0.06941283 -0.057849225 0.072014496 0.09992809 -0.033327553

transformer.attn.proj_v.weight f4 [72, 72]
00000000: f5be 11be 71aa 90bd 29cf f0ba 41d2 c4bc
00000010: 3646 97bc 4124 7a3c 4e5a 9a3d 5db4 1b3d
00000020: 0499 d13d e622 34bd 97f5 df3d c49c b73d
00000030: 6b37 78bd 80c6 3dbc daaa b6bc 92dd 133c
00000040: 513b 0cbe a6df f13d aac5 e73c 70ac c2bc
00000050: d7be f3bd 6b7d bd3c ef32 573d 1784 733d
00000060: bfe4 b5bd 105a 80bd b61e b63d 03f5 a53b
00000070: 1b48 da3d 9949 61bb 7160 92bd 437b a33d
00000080: c657 babc 189a 383d 4c6e bcbd 15c4 643d
00000090: 81ac e73d 2375 2c3d 8a17 19be 782c ee3d
000000a0: 2e9c 91bd 6129 02bd 0ece 123e b629 16be
000000b0: e89b 333d f07d 633c 6ec6 adbb 06aa e8bd
000000c0: 52f5 9c3d 6af9 163e aaf9 ce3a fa20 7f3d
000000d0: ea9a 00be fb91 f03c a665 bcbd 1fa0 db3d
000000e0: 3b28 583d 7cec 173d be4b 123c d740 19be
000000f0: 81bf 043e 4cc8 213d 64c2 753d a694 0abe
00000100: fc16 833d 3af2 a5bd cd65 4d3d ac47 2ebd
00000110: 7e7a f9bc 5145 a8bd 5d1e 2c3e a017 66be
00000120: 5dda debd 3a35 ff3b 8549 7a3d 9a5b 4f3e
00000130: cf5f 983d 4246 e43d 3315 153d 0707 fc3d
00000140: d0a3 30be afac b53d 1893 a7bd 809e 193d
00000150: 8286 a3bc d4d9 543d cc2e ce3d 3a9c 673d
00000160: d3e9 02be 0eaf eebd 73c1 1abd 880d 93bd
00000170: 9631 a1bd f33d a13c dcea 04be 0c40 8bbd
00000180: 9cf5 863d 176f 2b3d f955 8e3b 5f54 8cbb
00000190: d8e6 d5bc 29a3 413d 5a30 eebc ff09 3e3d
000001a0: a450 60bd d887 dc3d 5fef f0bd db9f 623d
000001b0: 3115 b8bd af34 ed3b 23d8 febc 1b6b 273d
000001c0: babe a8bb 761a d43a a221 903d 77f1 c03c
000001d0: a75a d63d 547e acbd 5791 e73d 99a5 953d
000001e0: 5846 ac3c a88f c0bd 6d31 9dbd a66c 92bd
000001f0: 4071 5c3d ff6a 53bc a7fd 68bd 5ae5 bebb
00000200: 6ce6 3e3c 8679 c2bd bb62 7a3b 0a66 86bd
00000210: 4074 ca3d 7552 f93c 6ab8 0f3e cce6 263d
00000220: 4253 09bd 2b75 b83d 6cf8 5b3d 8426 dcbd
00000230: 16c8 39be ab54 05bd aa20 ec3b 149d 06be
00000240: 2169 913c 1022 3fbd 4afd 0c3e 2c22 483c
00000250: 144b 023d 17c0 12bd c6f0 713d 4e98 e6bd
00000260: f820 b33d 70f4 2abe 18ad ecbd 17a7 9b3d
00000270: 7a0d 733d 31bb a23d 84fe 033e 049c 153d
00000280: 99ee e5b9 dd8f 833d 2e00 1abe e2ee b93c
00000290: 6c02 d0bd 6743 90bd d991 293d df4a 073e
000002a0: 53c4 fdbd 4fcf 1c3e f48d 8abd bf39 ac3d
000002b0: 5ab4 713d 1524 293e 067d 51bc 3222 373e
000002c0: 01cc 003e a299 663d efc9 c13d 842f 073c
000002d0: a560 bf3d df36 493d f4e8 2b3d c354 78bd
000002e0: 1ba7 133e fed4 ec3c e5c5 34bd 57c1 f83c
000002f0: e6b8 f43d 1289 c2bd 68ec eebc e007 89bc
00000300: 3949 c2bd 5cba 1d3e f18e 8cbd a90e 8c3d
00000310: 88d4 09bd 3769 9fbd ca90 873d 5ca8 2f3d
00000320: 9480 013d 6686 0abe d684 95bd cbfa 1abd
00000330: c7a6 343d 014b a93c 7649 a1bb d316 f83c
00000340: d9be c3bd 6ebf da3c 4b5d b3bb 583d 85bd
00000350: a7bf 393e 3add 273e 702d c8bd 0cff b3bd
00000360: d2d7 38bd 3a5a 0f3e c6b0 03bc ee8a 75bd
00000370: 81c2 7a3d c62f a03d 0a28 8bb9 536b b53d
00000380: 6e05 09be 9f33 5d3d 16b7 b63d 8509 d83d
00000390: 4716 a2bd 4cca eb3d 77ea d5bd ff6c 173e
000003a0: 1eef 17bc e846 7ebd 514b 23bd fefc 63bd
000003b0: 3905 453d dcd5 c6bb 8089 cdbc 4e62 babd
000003c0: 0668 f2bc 6c84 303d f609 9ebd 37ea 1a3d
000003d0: 6f87 c03d 650a 113b 9798 f33b 3fd0 69bc
000003e0: 40a7 d5bd a20f 3cbd 0024 03be bfce 44bd
000003f0: ca7c 123d bf67 1ebd 3774 b73c becf 9fbd
-0.14233 -0.07063759 -0.0018372285 -0.024026038 -0.018466096 0.015267433 0.075367555 0.038013805
0.102342635 -0.043978594 0.109355144 0.089654475 -0.060599726 -0.011582971 -0.022298265 0.009024994
-0.13694502 0.11810236 0.028292496 -0.023763865 -0.11901634 0.023131093 0.05253881 0.059452143
-0.088815205 -0.06267178 0.088925764 0.005064608 0.10658284 -0.0034376143 -0.07147301 0.07982495
-0.022746932 0.04506883 -0.09200725 0.05585106 0.113121994 0.042103898 -0.14950386 0.116295755
-0.07109867 -0.031777743 0.14336416 -0.14664349 0.043849856 0.013885006 -0.0053031957 -0.113605544
0.07663979 0.14743581 0.0015790958 0.06228731 -0.12559095 0.029366484 -0.091990754 0.107239
0.05277274 0.037090763 0.008929191 -0.1496614 0.12963678 0.03949766 0.05999984 -0.13533267
0.06400868 -0.08102842 0.050145913 -0.04254882 -0.030453917 -0.08216346 0.16808458 -0.2246995
-0.10881493 0.0077883275 0.06110527 0.20249787 0.07440149 0.11146213 0.03639717 0.12306028
-0.1724999 0.088708274 -0.08182353 0.037504673 -0.0199616 0.05196555 0.100675195 0.056545474
-0.1278451 -0.11654483 -0.037782144 -0.07180315 -0.07870786 0.01968286 -0.12980217 -0.06799325
0.06589815 0.04185399 0.004343745 -0.0042825188 -0.026111051 0.047274742 -0.02907579 0.04639625
-0.054764405 0.10768098 -0.117644064 0.05532823 -0.08988417 0.0072389464 -0.031108921 0.040873628
-0.0051496895 0.0016182202 0.07037665 0.02355264 0.10466509 -0.08422533 0.11307018 0.07306976
0.021029636 -0.094024 -0.07675443 -0.07149629 0.05381894 -0.012903928 -0.056882527 -0.0058256807
0.011651617 -0.09495835 0.003820582 -0.06562431 0.09885454 0.030434826 0.14035192 0.04074745
-0.033526666 0.09006723 0.05370371 -0.10749534 -0.18142733 -0.03255145 0.0072060423 -0.13145858
0.017750325 -0.046663344 0.13768497 0.012215178 0.03180988 -0.035827722 0.05906751 -0.112595186
0.08746523 -0.16694808 -0.115564525 0.07600229 0.059339024 0.0794586 0.12890059 0.03652574
-0.00043856053 0.06423924 -0.15039131 0.022696916 -0.10156712 -0.07044106 0.041398857 0.13212155
-0.123909615 0.15313457 -0.06765357 0.08409452 0.059009887 0.1651767 -0.012786156 0.17884138
0.12577821 0.05629886 0.09462344 0.008251075 0.09344605 0.049124595 0.04197021 -0.06062771
0.14419214 0.028910156 -0.04413404 0.03036563 0.11949329 -0.094988 -0.029165462 -0.016727388
-0.09486622 0.15403122 -0.068632014 0.06838734 -0.03364995 -0.0778374 0.06619413 0.04288517
0.031616762 -0.13527831 -0.07300727 -0.03783683 0.044104364 0.020665647 -0.0049220873 0.030284321
-0.09557886 0.026702609 -0.005473768 -0.06505841 0.18139516 0.16392985 -0.097742915 -0.08788881
-0.045127697 0.13999262 -0.008037752 -0.059946947 0.06122065 0.07821612 -0.00026541977 0.08858361
-0.13380978 0.054004308 0.089216396 0.10548691 -0.07914405 0.115131944 -0.10445111 0.14787672
-0.009273319 -0.06207934 -0.03986675 -0.055661194 0.048100684 -0.0060679745 -0.02508998 -0.091007814
-0.029590618 0.043095037 -0.07716744 0.03782102 0.09400832 0.002213144 0.0074339616 -0.014270841
-0.10432291 -0.045913346 -0.12806702 -0.04804873 0.03576354 -0.03867316 0.022394283 -0.078032956

transformer.attn.proj_v.bias f4 [72]
00000000: 9690 e23c a276 acbc 0fd7 493d 67c9 e2bd
00000010: 4d57 b3bd 1558 8ebb 2e7a f63d ea0d 733d
00000020: 3678 5bbc 5a9c 8d3d 8491 f13c 5836 22bd
00000030: 47bf b5bd 3889 ec3d f941 e5bc e1e9 c73d
00000040: b556 2dbd 7acd 66bd 0c8f cabc 8f52 1cbd
00000050: 581a bbbd eceb a23c 2bae de3d 6caf aebd
00000060: 7106 cfbd 3b29 b7bd 966f d63c 916b 4abd
00000070: 2eff 2ebd fa50 853d 9af8 3f3d 04f3 753c
00000080: 4817 9a3c dbe4 5a3d d483 c2bd 540c 4a3d
00000090: 945d debc 4375 733d 7c55 293c 7c8f 22bd
000000a0: b202 13bd d82e 6c3d 6137 30bd 93c2 4abd
000000b0: 1921 99bd 25de 893d 9c6e c3bd 4dc2 b63d
000000c0: d7c9 d03d 8350 6dbd b3b0 d73c 27c7 d43d
000000d0: 58a1 f93d 8956 63bd a56a 30bd 7e81 ee3d
000000e0: 2983 9abd 7634 753c 9353 913a 4f3a ccbd
000000f0: 0641 31bc a093 cb3d 2254 11bd 687b 1bbd
00000100: e2fc 8dbc b702 32bd 4d27 9fbc ac03 ea3b
00000110: 1029 0e3b dbc5 cabc af8a e9bc d4a4 00bd
0.027656835 -0.021052662 0.04927736 -0.11073571 -0.08756886 -0.0043439963 0.12035023 0.05933944
-0.01339536 0.06914587 0.029488333 -0.039602607 -0.08874374 0.1154961 -0.02798556 0.09761406
-0.04231902 -0.0563483 -0.024726413 -0.03816467 -0.09135884 0.019887887 0.10873064 -0.08529553
-0.101086505 -0.08943411 0.026176255 -0.04941899 -0.042723827 0.06509586 0.046867944 0.015011553
0.01880993 0.05344091 -0.094978005 0.049328163 -0.02714423 0.059438 0.0103353225 -0.03968762
-0.035891242 0.05766186 -0.043021563 -0.049501967 -0.07477016 0.06731824 -0.095425814 0.08923779
0.10194748 -0.05793811 0.026329374 0.10389548 0.12188977 -0.05550245 -0.043070454 0.116457924
-0.07544548 0.014966121 0.0011087529 -0.09972059 -0.010818725 0.099402666 -0.035480626 -0.037959486
-0.017332498 -0.04345962 -0.01942792 0.007141551 0.0021691956 -0.024752548 -0.028508512 -0.031407192

transformer.proj.weight f4 [72, 72]
00000000: 8b19 08bc 6e30 7f3d 559c 983d 2884 033d
00000010: 50a4 afbd b3d4 8fbd 5583 583d c0e1 063d
00000020: e9d3 26bd 7092 eb3b 65b2 003c dae4 97bd
00000030: be0f 3f3d e025 f7bd df58 fc3d 47ac 96ba
00000040: 90a9 e4bd 1a70 d13d 47e4 dcbd 157b 00be
00000050: 0eb5 d03d 7a2b d6bb 6d30 16bc 0cca b6bd
00000060: d903 d33d 9376 61bd e0cc 3f3d 118e 83bd
00000070: 2e03 d0bd 5e94 7bbd 1167 a63d da20 f23d
00000080: 0617 e8bd c972 a8bd e202 9ebc cd6b 9c3c
00000090: ce2f 823b 2648 c63d c28c 95bd 70d4 cfbb
000000a0: 4223 2dbe a313 913d f7ed b4bd bfb2 ba3d
000000b0: a5ca aebd 6c61 2c3d 9f14 2cbd a4ef dd3d
000000c0: a9a1 8c3d d661 d63d 3c47 5ebd f243 30bc
000000d0: 7a0e 623c 8bb1 02be ed66 b93d f3b3 b43c
000000e0: 410c 9abd e4e1 9b3d 932d acbd 9711 293e
000000f0: 5f73 5a3c f8ed e53c e1bf 01be eb6f cfbd
00000100: 2cfd da3d d11c 8ebd 1898 a3bd 3b55 b13c
00000110: b305 df3d b158 19bd 7cb5 f13d 03d7 fc3c
00000120: 573d 4cba 46a7 c43b f675 3d3d 6278 7cbd
00000130: 91e4 89bd 84d5 d73d 56ea b7bd 9bd4 f23d
00000140: c8c6 ae3c 2514 f13c a0e6 60bd 7c18 f2bc
00000150: 320a 973d c29f 603d fdb2 9fbb 9bfd 2ebc
00000160: a943 33bd a49a bcbd 6014 b63d 2d9f 90bd
00000170: 31c0 343d 2c0b 20bd aaf9 f23c d641 62bd
00000180: ec8f 2a3b 94f9 63bd ba99 9abd b89e 273e
00000190: ae5d c33c 3134 3abd 0b6f 833c 8cfd 643b
000001a0: f1e8 ad3d 6700 ad3d 8654 e6bc ca20 05be
000001b0: fadf cb3d 1caa 3d3d 4f76 18bd 75c3 c9bd
000001c0: 0681 bf3d ab42 15bc 5858 0b3e fd9f f83c
000001d0: 230e ac3a 0193 93bd 3bf6 013e f12d aebd
000001e0: eaaf 463c bcda 9ebd 2482 8f3d c5b4 ab3d
000001f0: 23cd 8dbd f503 98bd 2d07 5abd 6756 ed3c
00000200: 9e6b 08bd bc69 1dbd 194d fcbd fa37 ebba
00000210: 278f 27bd a4e9 253c 8c0f 033d f39b e13d
00000220: 1062 f5bd 63f2 c23d 583c 963d cef5 8f3d
00000230: f212 38bd 0011 17bc 2889 913b 7928 8fbc
00000240: 5f5e aebb 0456 893d fe23 153d f534 1e3d
00000250: 6ad7 10bd 3012 703d 9e6c 8a3d 9b53 853d
00000260: 8438 623d ac2d e2bd a9ac 303d f157 863d
00000270: 7a4d 9d3d 825d 88bd 076d 9f3d bd86 9c3d
00000280: 8339 563c adb5 fc3d 54c0 813c a4ed 033e
00000290: 6e21 edbd 67b3 df3c 220f 3d3d 03a0 da3d
000002a0: 6862 84bd 1dbd 413d c325 733d e6ac a6bc
000002b0: ff52 2cbd 657e 6c3b ac7c a0bd 198b 27bd
000002c0: d96c ee3d 9655 79bd bf87 b6bd 49c3 49bd
000002d0: 728e dbbd d8a9 993d ad64 95bd 714e faba
000002e0: 786e 43bd 0b4e bc3d 9235 ba3d 5429 fd3c
000002f0: f519 0cbd 0abe 0ebe be58 83bd 39b2 ddbc
00000300: 6cd7 b33d 83e2 d7bd 3e66 bfbd 24fa 5dbd
00000310: 23ab bb3d 2eff 223e 5b22 e8bd 1d3c d4bd
00000320: 87ec 30bd be20 61bd 7d8f 1b3d 3e35 9abc
00000330: 6da2 433d 2927 8ebd faba 1e3a bfe4 68bc
00000340: 931e edbd 5b66 46bc 403c f03c 362b cd3d
00000350: a5f0 c3bd d1dc d8bc 27de 813d 6049 f2bd
00000360: 3305 28bc aa56 00bd 0142 b8bd 281b 8f3d
00000370: c6d5 bd3d 9580 293e b4a5 8f3a 55ab c3bb
00000380: 2eec 963c e415 6d3d 5272 75bc 322c 183d
00000390: 5ba2 843b 2418 ccbd 327d babd 4847 a03d
000003a0: 463b 4e3d e6b1 02be 49f7 0e3e 0d27 983d
000003b0: 81cd c5bd 5417 6dbc 47f1 a73d d2b1 7abd
000003c0: f002 3f3d cb01 c13d 62f0 01bd 4bc5 43bd
000003d0: 8dca 0b3d 91f5 ac3c cf3b ffbd c672 1e3e
000003e0: 58b6 acbd 5eb7 883c 4d2f 583e 155a 38be
000003f0: 90c4 b53d 792d f8bd 6cd2 b7bd e684 b4bd
-0.008306871 0.062302046 0.07451693 0.032108456 -0.08576262 -0.07022991 0.052859623 0.032930136
-0.040729437 0.0071890876 0.007855033 -0.07416697 0.046645872 -0.12067771 0.12321638 -0.0011495434
-0.11165154 0.1022646 -0.10785728 -0.12546952 0.101907834 -0.0065359445 -0.009166819 -0.08925256
0.10303468 -0.05504472 0.046826243 -0.064235814 -0.101568565 -0.06142079 0.08125127 0.11822672
-0.11332516 -0.082250185 -0.019288484 0.019094372 0.003972984 0.0968173 -0.07302238 -0.006342463
-0.16907981 0.070838235 -0.08834451 0.09116124 -0.08534745 0.042085096 -0.042011853 0.108367234
0.06866772 0.104678795 -0.054267153 -0.010758387 0.013797397 -0.1276304 0.09052835 0.022058463
-0.075218685 0.076114446 -0.0840713 0.16510616 0.013333171 0.028067574 -0.12670852 -0.101287685
0.1069282 -0.0693909 -0.07987994 0.021647086 0.10889759 -0.0374381 0.118021935 0.030864244
-0.0007791123 0.006001386 0.046255074 -0.061638243 -0.06733049 0.10538772 -0.08980243 0.118569575
0.02133502 0.029428551 -0.05490744 -0.02955269 0.073749915 0.054839857 -0.004873632 -0.010680581
-0.043765698 -0.09209183 0.08890605 -0.0706161 0.0441286 -0.039073154 0.029660065 -0.055238567
0.0026025726 -0.055657938 -0.07548852 0.1636914 0.02384838 -0.04545993 0.01604416 0.0034941165
0.08491696 0.08447342 -0.028116476 -0.1300079 0.099548295 0.046304807 -0.037222203 -0.098517336
0.09350781 -0.009110133 0.13607919 0.030349726 0.0013126772 -0.07205773 0.12691586 -0.085048564
0.012126902 -0.07756564 0.07007244 0.083840884 -0.06923892 -0.0742263 -0.0532295 0.028971864
-0.033305757 -0.038430914 -0.12319393 -0.001794576 -0.040908005 0.010126505 0.03199725 0.11016073
-0.119815946 0.09518888 0.073357284 0.070293054 -0.044939943 -0.009220362 0.004441399 -0.017475354
-0.0053213085 0.06705859 0.036411278 0.038624723 -0.035361685 0.058611095 0.06758998 0.06510087
0.05522968 -0.110438675 0.04313341 0.06559742 0.07680793 -0.0665846 0.07784467 0.07642887
0.013075235 0.123393394 0.01583878 0.12883621 -0.11578642 0.027307225 0.04615701 0.10675051
-0.06464082 0.047299493 0.059362184 -0.020346116 -0.04207134 0.003608608 -0.07836279 -0.04090414
0.11641855 -0.060872637 -0.0891261 -0.049258504 -0.10720529 0.07503098 -0.07294593 -0.0019096864
-0.047712773 0.09194573 0.09092249 0.030903496 -0.034204442 -0.13939682 -0.064134106 -0.027062522
0.08781323 -0.105412506 -0.09345673 -0.05419363 0.09163501 0.15917656 -0.11334678 -0.10363028
-0.04319432 -0.054962866 0.037978638 -0.018824216 0.047762323 -0.06941063 0.00060550834 -0.014214694
-0.11578097 -0.012109364 0.029325604 0.100180075 -0.09567384 -0.026472481 0.063412 -0.118304014
-0.010255146 -0.03133265 -0.08996964 0.069876015 0.0926929 0.16552956 0.0010959418 -0.005971352
0.018423166 0.057882205 -0.014980869 0.037151523 0.0040476746 -0.09965542 -0.0910591 0.07826096
0.050349496 -0.12763175 0.1396152 0.07429323 -0.096583374 -0.014470894 0.08200317 -0.06120474
0.04663366 0.0942417 -0.031723388 -0.047795575 0.034128714 0.021113189 -0.124625795 0.1547347
-0.08433217 0.016688999 0.21111794 -0.18003114 0.08875382 -0.12118048 -0.08975682 -0.08814411

transformer.proj.bias f4 [72]
00000000: dc43 ef3d d14b 65bd 8d75 133d 08be 08be
00000010: f93a e8bd c081 07be 59c4 78bd 3d4c a6bb
00000020: 2cb2 e53d 85ec 303d eb09 c33d d13b 07be
00000030: ef82 78bc daeb 233e 3755 20be c135 c6bd
00000040: d470 a83c 508d 393d 56bc 453d 2392 ecbd
00000050: 55ad d2bd fb24 1b3d 0226 48bd ab5e b4bd
00000060: 03ed 0ebe 83f0 97bd fd06 2e3d 4037 c7bc
00000070: 77a9 993c 8fbe 53bb 04b5 603d 71c2 ae3d
00000080: cb1f a63d 16df 51bd 69c8 c53d 3f2d e43d
00000090: 118f 6fbd c62c 1e3d 4aa8 b4bd 12b4 73bd
000000a0: 150c 4ebc c80b 16be 8a5a 8f3d eaa6 a7bd
000000b0: 20ed 50bd e904 253b 12d2 b03c 4e23 c43c
000000c0: b4f7 7c3a 3352 c83d 7404 5abd 135e 2e3c
000000d0: 759a 013e 2475 893d ecef 8dbd 12ea c13d
000000e0: 6b38 5d3c f8f0 343c 5f0b 6f3d 1d72 943d
000000f0: 2742 853d f080 e4bd 623f aa3d 964f 9a3d
00000100: a211 033e 9cf7 b9bd ad84 363d 493b 0a3e
00000110: 2fe6 9abd 2285 ebbd 29c9 953c e1e1 8dbd
0.11682865 -0.055980507 0.036000777 -0.13353741 -0.11339373 -0.1323309 -0.060734127 -0.0050750063
0.11215624 0.043194313 0.09523376 -0.13206412 -0.015167936 0.16007939 -0.15657507 -0.096782215
0.020561613 0.04530078 0.048275314 -0.11551311 -0.10286967 0.037877064 -0.048864372 -0.08807119
-0.139576 -0.07418921 0.042487133 -0.024318337 0.018757565 -0.0032309627 0.05486013 0.085331805
0.08111533 -0.051238142 0.09657366 0.111414425 -0.058486048 0.038616918 -0.08821161 -0.0594979
-0.012576123 -0.14652932 0.06999691 -0.08186133 -0.05100739 0.0025179929 0.021584544 0.023942616
0.0009649948 0.09781303 -0.053226903 0.010642546 0.12656577 0.06711796 -0.06930527 0.094684735
0.013502221 0.01104378 0.058360454 0.07248328 0.06506758 -0.111574054 0.083128706 0.07534711
0.12799695 -0.09080431 0.044560123 0.13499178 -0.07563435 -0.115000024 0.018284397 -0.069278486
